produce_price_model.pth (torch, 50789 bytes, 5 tensors)

fc1.weight f4 [128, 27]
0	0xbe071358	-0.13190973
1	0x3dc17950	0.09446967
2	0x3e7200ab	0.23633067
3	0x3e5b4ff8	0.21417224
4	0xbdb6e2e7	-0.08929997
5	0x3d459238	0.04823515
6	0x3d27589f	0.040856
7	0x3d01e162	0.031709082
8	0xbc160301	-0.00915599
9	0xbe15a895	-0.1461509
10	0xbe295728	-0.16537154
11	0x3dc73295	0.09726445
12	0xbd2ce34b	-0.04220895
13	0x3dee50d0	0.116365075
14	0x3d926450	0.07148039
15	0x3dd6b5ec	0.104839176
16	0xbe420e6c	-0.18950814
17	0xbe0cad27	-0.13737927
18	0xbe28bee3	-0.16479068
19	0xbbdd2ad7	-0.0067494917
20	0x3d5ef0f3	0.054429006
21	0xbe2da886	-0.16958818
22	0xbe29ebfa	-0.16593924
23	0xbdb01c63	-0.08599164
24	0xbccb833c	-0.02484285
25	0x3c6d9604	0.014501099
26	0x3dc54482	0.096322075
27	0xbe2fa38a	-0.17152229
28	0x3de3f525	0.11130742
29	0x3e5c8277	0.21534143
30	0x3e48b8a2	0.19601682
31	0x3e531f2a	0.20617357
32	0x3e486b49	0.19572176
33	0xbe10da7f	-0.1414585
34	0xbd4aa56f	-0.049474176
35	0xbe054261	-0.13013603
36	0x3e17966e	0.14803478
37	0x3ce74d3d	0.028235072
38	0x3e38f8e0	0.18063688
39	0x3dfd6b1c	0.12373945
40	0x3da606e2	0.081067815
41	0x3e3629bc	0.17789358
42	0x3c8e40dd	0.017364914
43	0xbe3f7a25	-0.18698938
44	0x3cf6af59	0.03011291
45	0xbc19c339	-0.009384924
46	0xbde85226	-0.113437936
47	0xbdbe8ba0	-0.09303975
48	0x3e2cc79e	0.16873023
49	0xbdbe1253	-0.09280839
50	0x3dbdd814	0.09269729
51	0x3d812d08	0.06307417
52	0xbe37ea5e	-0.17960498
53	0xbd74ccc8	-0.059765607
54	0xbe80cf00	-0.25157928
55	0x3e4b0819	0.19827308
56	0xbe2669b2	-0.16251257
57	0xbd9551ed	-0.07291017
58	0xbe0bea14	-0.13663512
59	0x3dca073e	0.098646626
60	0x3e1ac22a	0.1511313
61	0x3e20f92a	0.15720049
62	0xbd0eb713	-0.034842562
63	0xbdaba053	-0.08380189
64	0x3dcc2255	0.09967486
65	0xbdf223a4	-0.11823204
66	0xbe2cc772	-0.16872957
67	0xbdda83dc	-0.106696814
68	0xbdbf0954	-0.09327951
69	0xbdab68dd	-0.083696105
70	0xbe0d897c	-0.13821977
71	0x3dfb673b	0.12275549
72	0xbe3995b7	-0.18123518
73	0xbdeed86a	-0.116623715
74	0x3e0d7de2	0.13817552
75	0xbcf61efa	-0.030044068
76	0xbe0cc6a5	-0.13747652
77	0x3de6823b	0.11255308
78	0x3e0cd535	0.13753207
79	0x3df30f67	0.11868172
80	0xb999713e	-0.00029266806
81	0x3dc1c475	0.09461299
82	0xbdac7b05	-0.084219016
83	0x3e5b37ac	0.21407956
84	0x3e4d1a5f	0.20029591
85	0x3df74319	0.12073345
86	0xbd575731	-0.052573387
87	0x3e027bcc	0.12742537
88	0x3d507e22	0.05090154
89	0x3e0f8490	0.14015412
90	0x3e403009	0.18768324
91	0xbda2773e	-0.079329
92	0x3e477483	0.1947804
93	0x3e27bd7b	0.16380875
94	0xbe488fb3	-0.19586067
95	0x3e5c5b75	0.21519263
96	0x3dca8158	0.098879516
97	0xbcd4545d	-0.025919134
98	0xbe3b8fbb	-0.18316548
99	0x3d8cab48	0.06868607
100	0x3d08d493	0.03340585
101	0x3dbd6d9d	0.09249423
102	0x3d970ddc	0.0737569
103	0xbe166b4e	-0.14689371
104	0xbdeaf726	-0.11472921
105	0xbe5a706e	-0.21331951
106	0x3e21f39c	0.15815586
107	0x3da4ea51	0.08052505
108	0x3e3d5afc	0.18491739
109	0xbe220085	-0.1582051
110	0xbcfa2fc1	-0.030540349
111	0x3e52ffc7	0.20605384
112	0xbdce8541	-0.1008401
113	0xbcda80a2	-0.026672665
114	0xbe6cf89a	-0.23141709
115	0xbe6fd0b9	-0.23419465
116	0x3d7e7407	0.06212237
117	0xbe35293c	-0.17691511
118	0xbe39fbe7	-0.181625
119	0xbe6b0f46	-0.22955045
120	0x3e0015fb	0.12508385
121	0xbdedc1e7	-0.116092496
122	0xbe0461ee	-0.12927982
123	0xbe24fb98	-0.161116
124	0x3d090821	0.033455018
125	0xbe35eea4	-0.17766815
126	0xbe36d6ea	-0.1785542
127	0xbc5f9ec8	-0.013648696
128	0x3d8295dd	0.063762404
129	0x3ae77e63	0.0017661568
130	0xbe4475cf	-0.19185565
131	0xbd620a4c	-0.0551856
132	0x3e498595	0.19679864
133	0x3ca29b0b	0.01984932
134	0xbe150344	-0.14552027
135	0x3d1f2bca	0.03886012
136	0xbd1c7c26	-0.038204335
137	0x3e44b366	0.1920906
138	0x3e55fa25	0.20896204
139	0xbd7c7a2f	-0.06163996
140	0xbd06bcb9	-0.032894824
141	0xbe5293ba	-0.20564166
142	0x3e463f5b	0.19360106
143	0xbe59f543	-0.21284966
144	0x3e3a5e23	0.18199973
145	0x3c84e1ee	0.016221013
146	0xbe519254	-0.20465976
147	0x3e37c35d	0.17945619
148	0xbdf90366	-0.12158851
149	0xbe065a00	-0.1312027
150	0x3e41822d	0.18897314
151	0x3dc1f112	0.09469809
152	0xbdc3d824	-0.0956271
153	0xbd6b8799	-0.057502363
154	0xbdba6150	-0.09100592
155	0x3d4764fb	0.048680287
156	0x3d73b856	0.05950197
157	0xbdc22155	-0.09479014
158	0xbe03e4fa	-0.12880316
159	0x3e278ccd	0.16362305
160	0xbe5452b6	-0.20734677
161	0x3df328b4	0.11872998
162	0xbe33c578	-0.17555797
163	0x3dc46abc	0.095906705
164	0x3c865d32	0.01640186
165	0x3cbc403b	0.022979846
166	0xbe0fbfb1	-0.14037968
167	0x3e1b6504	0.15175253
168	0xbcf8655d	-0.030321771
169	0xbe183145	-0.14862545
170	0xbc879a43	-0.01655305
171	0xbe1b5adc	-0.15171379
172	0xbcf16a92	-0.029469762
173	0xbd20b88e	-0.039238505
174	0xbd4e1d63	-0.050320994
175	0xbe3e6538	-0.185933
176	0x3e124989	0.14285864
177	0x3d1e11c5	0.038591165
178	0xbd3373fe	-0.04381179
179	0x3e37f2fa	0.17963782
180	0xbd691420	-0.05690396
181	0xbdf48af2	-0.11940564
182	0xbe3960e2	-0.18103364
183	0x3dc05d1e	0.09392761
184	0x3d94d408	0.07267004
185	0x3c9095bb	0.017649522
186	0xbb91aa15	-0.004445324
187	0x3e2811fa	0.16413108
188	0x3d5f939d	0.054584134
189	0xbdb2031c	-0.08691999
190	0xbe260d82	-0.1621609
191	0x3dc8a434	0.09796944
192	0xbe285a90	-0.16440797
193	0x3e5bc660	0.21462393
194	0x3c7d446e	0.015458209
195	0xbd7c9bf9	-0.061672185
196	0xbdcd00d8	-0.100099266
197	0x3e31c801	0.17361452
198	0xbda480bb	-0.08032366
199	0xbcd4f43f	-0.025995372
200	0xbe446a74	-0.19181234
201	0xbda7ed72	-0.08199586
202	0x3d4dc211	0.050233904
203	0x3e585443	0.21125893
204	0xbdbc2aa9	-0.09187824
205	0x3e1751f1	0.14777352
206	0x3d70608d	0.058685828
207	0xbc802da7	-0.015646769
208	0xbc1f5ca6	-0.009726679
209	0xbd4df24f	-0.05027991
210	0xbdc95289	-0.098301955
211	0xbd90dc52	-0.07073273
212	0x3e08ce6a	0.1335999
213	0x3dd05f65	0.10174445
214	0xbe0f8947	-0.14017211
215	0xbe05088c	-0.12991542
216	0xbdd02c13	-0.101646565
217	0xbe243b32	-0.16038206
218	0x3db8abf1	0.0901717
219	0xbe0ad230	-0.13556743
220	0xbc5cf838	-0.013486914
221	0x3dc1f3a0	0.09470296
222	0xbe08d4a0	-0.1336236
223	0xbd5a8254	-0.053346947
224	0xbe1e04c4	-0.15431505
225	0xbe61b9df	-0.2204356
226	0xbe250e3c	-0.16118711
227	0xbe32da6f	-0.17466138
228	0x3dd513d2	0.10404171
229	0x3cfeb10e	0.031090286
230	0x3c895e62	0.016768638
231	0xbe3e71c6	-0.18598089
232	0xbb716490	-0.0036833622
233	0xbd0e9402	-0.03480912
234	0xbe32bbd5	-0.17454465
235	0xbcf18910	-0.029484302
236	0x3c7cfa7c	0.0154405795
237	0x3de3008a	0.11084087
238	0xbe5ee6d5	-0.21767743
239	0xbd01542b	-0.03157441
240	0x3dd26c55	0.10274569
241	0x3d380c41	0.04493356
242	0xbdc4e2c2	-0.09613563
243	0xbe53ac42	-0.2067118
244	0xbe208b22	-0.15678075
245	0x3e68c378	0.22730815
246	0x3daaedb5	0.0834612
247	0x3d190af7	0.037363973
248	0x3d6bcbd8	0.057567447
249	0x3d17c0de	0.037049167
250	0x3e5a5f1a	0.21325341
251	0xbd9d147f	-0.07669925
252	0x3e5291c4	0.20563418
253	0xbd50344d	-0.050831128
254	0x3d6e1213	0.058122706
255	0xbe414b2f	-0.18876337

fc1.bias f4 [128]
0	0x3e068e99	0.13140334
1	0x3e69336a	0.22773519
2	0xbe0643f3	-0.13111858
3	0xbe11e3c7	-0.14247046
4	0x3deae5ad	0.114695884
5	0xbdfe5db4	-0.12420216
6	0xbdb24650	-0.08704817
7	0xbd644b2b	-0.05573575
8	0x3e5ef2b5	0.21772273
9	0x3d565a45	0.05233218
10	0x3e5c01d6	0.21485075
11	0xbc23182a	-0.009954492
12	0xbde4c509	-0.11170394
13	0x3b6565e9	0.003500337
14	0x3e60db46	0.21958646
15	0x3cbd5e46	0.023116242
16	0x3d829512	0.06376089
17	0x3ced7946	0.028988492
18	0x3de3eb43	0.11128857
19	0xbbd25c08	-0.0064196624
20	0xbc648398	-0.01394739
21	0xbd2300bc	-0.039795622
22	0x3c8f8b7a	0.017522562
23	0x3e615de5	0.22008474
24	0x3e425724	0.18978554
25	0xbdd9535b	-0.10611602
26	0xbd1563f5	-0.03647228
27	0xbdea17b3	-0.114303015
28	0x3b801eb5	0.0039099106
29	0x3db938bb	0.090440236
30	0x3df05f55	0.11736933
31	0x3d3915e4	0.045186892
32	0x3da27f69	0.07934458
33	0x3d6891b7	0.05677959
34	0xbda3babc	-0.07994601
35	0xbc187795	-0.009305854
36	0x3d1180e5	0.035523314
37	0xbe0a9b79	-0.1353587
38	0x3e409639	0.18807305
39	0xbbf43a3d	-0.0074532316
40	0x3e1a2a57	0.15055214
41	0x3e1d883a	0.15383998
42	0xbde80a61	-0.113301046
43	0x3e086901	0.13321306
44	0x3e3878b2	0.18014792
45	0x3dbcaf6f	0.09213149
46	0x3caf0aae	0.021367397
47	0xbd898c95	-0.06716267
48	0xbada05e7	-0.0016633839
49	0x3c56b465	0.013104533
50	0xbdf3f204	-0.11911395
51	0x3e0b0037	0.135743
52	0xbe08c39a	-0.13355866
53	0xbdcea1ce	-0.100894555
54	0x3e6032d7	0.21894394
55	0xbd93037d	-0.071784
56	0xbd4a9b44	-0.04946448
57	0x3dc74564	0.09730032
58	0xbcf488e8	-0.029850438
59	0xbd47bc4a	-0.04876355
60	0xbdb62be2	-0.08895089
61	0x3cdd1ddc	0.026991777
62	0x3d90c748	0.0706926
63	0x3dbdc4a3	0.09266021
64	0x3e12151f	0.1426587
65	0xbca47e69	-0.020079808
66	0x3e082b8d	0.13297863
67	0xbce70389	-0.028199928
68	0x3d50d264	0.050981894
69	0xbc8b2645	-0.016986022
70	0x3e75dfce	0.24011156
71	0x3e4c6fcd	0.19964524
72	0x3b012536	0.0019706017
73	0xbc348a16	-0.01101925
74	0x3e161c3f	0.14659213
75	0x3de0264f	0.10944807
76	0x3dab29a6	0.08357553
77	0xbda9cc48	-0.08290917
78	0x3d23c6aa	0.039984383
79	0x3e26e1b0	0.1629703
80	0xbdd854e9	-0.1056307
81	0x3d54555c	0.051839218
82	0x3cd9bc5e	0.026579078
83	0xbd9e325f	-0.07724451
84	0xbe1b8226	-0.15186366
85	0xbe19cfc9	-0.1502067
86	0x3c8418cd	0.016125107
87	0xbdb80711	-0.08985723
88	0x3ce1694e	0.027516034
89	0xbd72295f	-0.059121486
90	0x3e0e62a8	0.13904822
91	0x3e0b4302	0.1359978
92	0xbdb48666	-0.08814697
93	0xbd68627f	-0.05673456
94	0xbdc2f9cc	-0.09520301
95	0xbd059cdd	-0.0326203
96	0xbd124196	-0.03570708
97	0xbd2aeae4	-0.041727915
98	0xbd866a7c	-0.06563279
99	0x3cad75a1	0.021174254
100	0x3d457cc5	0.048214693
101	0x3d0f0b8e	0.03492313
102	0xbdb8a3ce	-0.09015618
103	0x3d0c2233	0.034212302
104	0x3e3c2136	0.18372044
105	0x3d02df78	0.031951398
106	0x3dbc9150	0.09207404
107	0xbe1d9657	-0.15389381
108	0xbc3dcc92	-0.011584418
109	0x3e6e5706	0.23275384
110	0x3dc628a0	0.09675717
111	0xbde8b951	-0.11363471
112	0xbdd7acd5	-0.10531012
113	0xbdf2ed5d	-0.1186168
114	0x3e234492	0.15944126
115	0x3d2f2754	0.042762116
116	0x3dba7192	0.09103693
117	0xbde14b1b	-0.11000653
118	0x3e611e94	0.21984321
119	0x3e1e2ffb	0.1544799
120	0xbddf65c6	-0.109080836
121	0x3d830f84	0.06399444
122	0x3cb9c26f	0.022675721
123	0x3e05e2df	0.13074826
124	0x3e3054c3	0.17219834
125	0x3c3741a8	0.011185087
126	0x3c55190d	0.013006461
127	0x3bd7418a	0.006569092

fc2.weight f4 [64, 128]
0	0x3c843e88	0.016143098
1	0x3d1ad453	0.037800144
2	0xbca73883	-0.02041269
3	0x3b64a696	0.0034889332
4	0xbc7584a9	-0.014985242
5	0xbd9d8ad5	-0.07692496
6	0xbba9a82f	-0.0051775197
7	0x3d39628e	0.045260005
8	0xbd855a94	-0.06511417
9	0xbd950e47	-0.07278114
10	0x3d7773c1	0.060413126
11	0xbd74aa7a	-0.05973289
12	0xbd61be1d	-0.055112947
13	0x3d218f92	0.03944356
14	0xbc7d9209	-0.015476712
15	0xbcc2724b	-0.02373614
16	0xbd204c95	-0.039135534
17	0x3c0a2a81	0.008432985
18	0xbca24a94	-0.019810952
19	0x3c1cd71a	0.009572769
20	0xbdc9c7fd	-0.09852598
21	0xbb3c0751	-0.0028690884
22	0x3d59a349	0.053134236
23	0xbd5c1142	-0.053727396
24	0x3d3df9dc	0.046380863
25	0xbd8c7539	-0.06858296
26	0xbda01cf1	-0.0781802
27	0xbdae5f6c	-0.08514294
28	0xbcf9078f	-0.030399112
29	0x3d3964b6	0.04526206
30	0xbd7140f3	-0.05889983
31	0xbcfcb890	-0.030849725
32	0xbdb00400	-0.08594513
33	0xbdcebeec	-0.10095009
34	0xbd3d7580	-0.046254635
35	0x3d3a32cb	0.045458596
36	0x3d727676	0.059195004
37	0x3d88363f	0.066509716
38	0x3c53c388	0.012925036
39	0x3d754364	0.05987872
40	0xbd8851d1	-0.0665623
41	0xbd6d85ef	-0.057989057
42	0xbd4bf3cc	-0.04979305
43	0xbd32afa0	-0.04362452
44	0xbd5afaf8	-0.053462
45	0xbcfd766a	-0.030940253
46	0xbd5d8916	-0.054085813
47	0x3d3040da	0.043030597
48	0xbdaa6bb3	-0.08321323
49	0xbd612ba4	-0.05497326
50	0xbdafe988	-0.085894644
51	0x3c98e4ce	0.01866379
52	0x3d7d6691	0.061865393
53	0xbd03bd24	-0.0321628
54	0x3d41da87	0.047327545
55	0x3ca6d9d3	0.020367539
56	0xbda09b8a	-0.07842167
57	0xbdc5af69	-0.096525975
58	0xbd774fe5	-0.060378928
59	0xbcfc4fd8	-0.030799791
60	0xbd6d31e6	-0.057908915
61	0xbbec7d6d	-0.0072171004
62	0x3d5013db	0.050800186
63	0x3d8ec5a7	0.06971293
64	0x3d0c36a3	0.034231793
65	0x3c60ec94	0.01372828
66	0xbbd14c35	-0.0063872584
67	0xbcadad82	-0.021200899
68	0x3d06805e	0.032837264
69	0x3d29a265	0.041414637
70	0x3cf40dea	0.029791791
71	0x3d708896	0.05872401
72	0xbd9c796e	-0.076403484
73	0x3cdf528e	0.027261045
74	0xbda45d58	-0.080256164
75	0x3bf44191	0.007454105
76	0x3d1043ee	0.035221033
77	0xbca63de0	-0.020293176
78	0x3ce9b1c8	0.028527156
79	0xbd88947e	-0.06668948
80	0xbd4c2e5c	-0.0498489
81	0x3d7e49b0	0.062081993
82	0x3d8b0610	0.06788266
83	0xbd4f4582	-0.050603397
84	0x3d6a549d	0.0572096
85	0x3d07629e	0.033053033
86	0xbd4381d0	-0.04773122
87	0xbdd5f5b5	-0.104472555
88	0xbd2d62a1	-0.042330388
89	0x3d020122	0.03173936
90	0x3cdafcd6	0.02673189
91	0xbc91d2f4	-0.017800786
92	0xbd85aa13	-0.0652658
93	0xbc912288	-0.017716661
94	0xbda7a6a9	-0.08186085
95	0xbd1b6028	-0.0379335
96	0x3cc250a7	0.023720099
97	0xbd573dad	-0.052549053
98	0xbd441c81	-0.047878746
99	0xbd9a2ccf	-0.07528078
100	0xbcd295c8	-0.025706187
101	0xbc302ea5	-0.010753308
102	0x3d8151ae	0.06314407
103	0xbc89b974	-0.016812064
104	0xbbc883c6	-0.0061192242
105	0x3b0ad24a	0.002118247
106	0xbdc94f7d	-0.09829614
107	0xbd791c05	-0.060817737
108	0x3cad6eec	0.021171056
109	0xbd0ecb96	-0.034862123
110	0xbc948532	-0.018129919
111	0xbaba09d1	-0.0014193599
112	0xbd33fb40	-0.043940783
113	0xbdbbf6e8	-0.09177953
114	0xbda43b03	-0.08019068
115	0x3d331ba0	0.043727517
116	0xbc2f872e	-0.010713382
117	0xbce3c5e8	-0.02780433
118	0x3d2abf1f	0.041686174
119	0x3d56e4d3	0.052464318
120	0xbd935107	-0.07193189
121	0xbcbfcb49	-0.023412364
122	0xbd6ae73c	-0.05734943
123	0xbd36d1ad	-0.044633556
124	0x3d45a57f	0.048253532
125	0x3d20b528	0.039235264
126	0xbcfdf282	-0.030999426
127	0x3d24f314	0.04027088
128	0x3d97d87c	0.07414338
129	0x3e0729aa	0.13199487
130	0xbd47efd5	-0.048812706
131	0x3c300229	0.0107427025
132	0xbcf017f5	-0.029308299
133	0x3df34711	0.11878789
134	0xbd2ee23e	-0.04269623
135	0x3c3b701c	0.011440303
136	0x3dfca51b	0.12336179
137	0xbd53d221	-0.051714066
138	0x3de12f05	0.109952964
139	0x3ddf9601	0.10917283
140	0x3d2a3cc0	0.041561842
141	0x3dbc273b	0.0918717
142	0x3dae50bc	0.085114926
143	0x3a4ee79a	0.00078927877
144	0xbd5edd6a	-0.054410376
145	0x3d050164	0.03247203
146	0x3d3e137b	0.046405297
147	0xbbf6f862	-0.0075369338
148	0x3d1dbd30	0.0385105
149	0xbd21ffd9	-0.039550636
150	0x3b8ccc08	0.0042967834
151	0x3c900eb5	0.017585138
152	0x3d827e70	0.06371772
153	0xbc5bc7fa	-0.013414377
154	0xbd7c540a	-0.061603583
155	0x3d00b703	0.031424534
156	0x3dad4182	0.0845976
157	0x3d2998ff	0.041405674
158	0x3a4f3c2d	0.000790539
159	0x3db3cb2d	0.08778987
160	0x3d913c1b	0.07091542
161	0xbd4479b9	-0.047967646
162	0xbc9ff6ae	-0.019526806
163	0xbbecffaa	-0.007232626
164	0xbd088e04	-0.03333856
165	0x3d809753	0.06278863
166	0x3b6d04da	0.0036166222
167	0x3d526fc0	0.051376104
168	0xbd04b633	-0.03240032
169	0x3c5bc56f	0.013413771
170	0x3d57b7ad	0.0526654
171	0x3de02d15	0.10946099
172	0xbcb2af0c	-0.021811984
173	0x3dda0c12	0.106468335
174	0x3d84e28f	0.06488525
175	0x3c9a2185	0.018814811
176	0x3df9869c	0.12183878
177	0xbc2c1a07	-0.010504252
178	0x3d593398	0.05302772
179	0x3d134a80	0.03595972
180	0x3d2890b2	0.041153617
181	0x3c2f61e3	0.01070449
182	0x3d887ba5	0.06664208
183	0x3c130941	0.008974374
184	0x3d778503	0.060429584
185	0x3e057baa	0.13035455
186	0x3cdfa834	0.027301885
187	0x3d9c69c9	0.076373644
188	0x3dc67fd6	0.096923515
189	0x3d98a0b6	0.07452528
190	0x3ded3d50	0.1158396
191	0x3c2e8523	0.010651859
192	0x3de376cb	0.11106642
193	0x3d1ec4df	0.03876197
194	0x3d979ae0	0.07402587
195	0xbcaa3371	-0.020776482
196	0x3e050d7f	0.1299343
197	0x3cb25187	0.02176739
198	0x3dd6e239	0.10492367
199	0x3cbbc45a	0.022920776
200	0x3de8aefb	0.113615
201	0xbd1e804a	-0.038696565
202	0x3cf2c435	0.029634574
203	0x3d317362	0.04332293
204	0x3daea395	0.085272945
205	0x3dc7ed7d	0.09762094
206	0xbcea0d67	-0.028570844
207	0xbc41f1c1	-0.011837424
208	0x3c489b56	0.012244066
209	0xbccbc0ff	-0.024872301
210	0xbcf226f9	-0.0295596
211	0x3de3c888	0.11122233
212	0x3de2e7ec	0.11079392
213	0xbc4a4875	-0.012346377
214	0x3ddec9cf	0.10878336
215	0xbb307194	-0.0026923167
216	0xbc7fd64e	-0.015615059
217	0x3d60ddc4	0.054898992
218	0xbd5bec9e	-0.053692453
219	0xbd3c1191	-0.04591519
220	0x3d506b26	0.050883435
221	0xbc0124b4	-0.007882286
222	0x3deab099	0.114594646
223	0xbc4c1007	-0.012454993
224	0xbbddc1cb	-0.0067674867
225	0xbd263ba7	-0.040584233
226	0x3d0d2f35	0.03446885
227	0x3dd44e69	0.10366518
228	0x3de04199	0.10950012
229	0xbd21d4c7	-0.03950956
230	0xbc8c4d4e	-0.017126705
231	0x3e077139	0.13226785
232	0x3bd99dbd	0.0066411183
233	0xbd61d8a9	-0.055138264
234	0x3d461a0e	0.04836469
235	0xbb541065	-0.0032358405
236	0x3dc1c33a	0.09461065
237	0x3d3d59b4	0.046228126
238	0x3d389c58	0.045070976
239	0x399645e6	0.00028662308
240	0x3daaace9	0.08333761
241	0x3cb6d08a	0.022316236
242	0x3c6fa569	0.014626839
243	0x3d378422	0.044803746
244	0xbb66dce8	-0.0035226885
245	0x3c758a85	0.014986639
246	0x3d571286	0.0525079
247	0xbd55558f	-0.05208355
248	0xbcbabb1a	-0.022794295
249	0x3d07202f	0.032989677
250	0x3decc48d	0.115609266
251	0xbc9e2190	-0.019303113
252	0x3d83b1fd	0.06430433
253	0x3ddda97a	0.10823341
254	0xbb983767	-0.0046452763
255	0x3dff42f6	0.12463944

fc2.bias f4 [64]
0	0xbdade1d0	-0.08490336
1	0x3ced4f5d	0.028968507
2	0xbd316d2a	-0.043316998
3	0x3c50980c	0.012731563
4	0xbdd8a254	-0.10577837
5	0xbc026312	-0.0079581905
6	0x3dd26831	0.10273779
7	0x3def08c0	0.11671591
8	0xbd6cb51b	-0.057789903
9	0x3c68198f	0.01416625
10	0x3cd477ed	0.025936091
11	0x3c4734db	0.012158598
12	0x39c6458e	0.00037817325
13	0xbd9c1564	-0.076212674
14	0xbce1335d	-0.027490312
15	0xbc0e0dfb	-0.008670325
16	0x3d50232f	0.050814804
17	0x3d93be33	0.07214012
18	0xbd7876c0	-0.060660124
19	0x3de47056	0.11154239
20	0xbd7f2ca4	-0.062298432
21	0xbc5981d6	-0.013275584
22	0x3b82705c	0.0039806794
23	0xbc306fc5	-0.010768835
24	0x3c4076d0	0.011747077
25	0x3d3e7724	0.04650034
26	0x3d22fc21	0.03979123
27	0xbc8d4a66	-0.01724739
28	0xbdc14b3f	-0.0943818
29	0x3d38b4e6	0.045094393
30	0x3d320353	0.0434602
31	0x3c775cda	0.015097821
32	0x3d13aa4e	0.036051087
33	0xbcbd082b	-0.023075184
34	0xbd7b867d	-0.061407555
35	0xbca266d2	-0.01982442
36	0x3cd52eda	0.026023317
37	0xbc3cc210	-0.0115208775
38	0xbdbfdbb4	-0.09368077
39	0xbcb4809a	-0.022033978
40	0x3d7ff5db	0.062490325
41	0x3be8c575	0.007103617
42	0x3d064c4c	0.032787606
43	0xbd1d9aa7	-0.038477566
44	0x3dccbdf7	0.099971704
45	0xb9b21cfe	-0.00033972407
46	0x3d80ace9	0.0628298
47	0x3de0adba	0.10970636
48	0x3dab0fb9	0.08352608
49	0x3d8b736d	0.06809125
50	0xbcd70a04	-0.026249893
51	0x3c07950a	0.00827528
52	0xbd0b9822	-0.034080632
53	0x3d3f0a1c	0.0466405
54	0x3d636335	0.055514533
55	0x3db9c93d	0.09071586
56	0x3d8f4b6d	0.06996808
57	0x3d8b5ce3	0.06804826
58	0x3d5e3289	0.054247413
59	0x3dec80ff	0.115480416
60	0xbb7f58cd	-0.0038962841
61	0xbc389c65	-0.011267756
62	0xbb3dff85	-0.0028991413
63	0xbb4fdebd	-0.0031718456

fc3.weight f4 [1, 64]
0	0xbc974324	-0.018464632
1	0x3e04c8c0	0.12967205
2	0xbd73e153	-0.059541058
3	0x3dd93abc	0.10606906
4	0xbc054303	-0.008133653
5	0xbd8be0d8	-0.06829995
6	0x3db4c359	0.08826322
7	0x3e1dd6e8	0.15414011
8	0xbddec9fb	-0.108783685
9	0x3dfc0c27	0.123070054
10	0x3da98d2c	0.082788795
11	0xbc128e2f	-0.008945032
12	0x3dcedfec	0.101013035
13	0xbdc22e5d	-0.09481499
14	0x3e27cf3c	0.16387647
15	0x3d9629d3	0.07332196
16	0x3de97545	0.113993205
17	0xbd8f4538	-0.06995624
18	0xbd78d7be	-0.060752623
19	0x3d90a744	0.070631534
20	0xbca789eb	-0.020451507
21	0x3e0bb4eb	0.13643233
22	0xbc7a1dd3	-0.0152659
23	0x3da903a6	0.08252649
24	0x3e18692c	0.1488387
25	0x3de15877	0.110032015
26	0x3d424181	0.04742575
27	0x3d3ec853	0.046577763
28	0xbd208816	-0.03919228
29	0xbd987930	-0.0744499
30	0x3e27145d	0.16316362
31	0x3a8ac710	0.001058789
32	0x3d580e3b	0.052747946
33	0x3e1c5f02	0.15270618
34	0xbd6a9c33	-0.05727787
35	0x3dd5e1d3	0.10443463
36	0xbd4ef987	-0.050530937
37	0x3e1d9b5a	0.15391293
38	0xbd4d3b99	-0.050105665
39	0x3e03ae26	0.12859401
40	0xbceaf4d6	-0.0286812
41	0xbd83087c	-0.06398103
42	0xbd6829b1	-0.056680385
43	0xbdb7800f	-0.08959972
44	0x3d1ecbb0	0.03876847
45	0x3e058c89	0.13041891
46	0x3dbb8678	0.09156507
47	0x3defcf92	0.11709513
48	0x3df79662	0.1208923
49	0x3dca84ed	0.09888635
50	0xbc8a222e	-0.016862001
51	0x3d4face8	0.050702006
52	0x3b9af360	0.0047287196
53	0x3e09e811	0.13467433
54	0xbdc9dfdb	-0.0985715
55	0x3e181978	0.14853466
56	0x3dc9fa3a	0.0986218
57	0xbddbfd09	-0.10741622
58	0xbdd94bb4	-0.10610142
59	0x3d6da265	0.0580162
60	0xbcf4676d	-0.029834474
61	0x3d6e37d0	0.058158696
62	0x3d7b81d0	0.061403096
63	0x3d175edd	0.036955703
